…
2023-12-20 18:18:44,165 - INFO - Loading ./libcity/cache/dataset_cache/point_based_PeMS07_12_12_0.6_0.2_standard_64_False_False_False_True.npz
2023-12-20 18:18:50,656 - INFO - train	x: (16921, 12, 883, 1), y: (16921, 12, 883, 1)
2023-12-20 18:18:50,656 - INFO - eval	x: (5640, 12, 883, 1), y: (5640, 12, 883, 1)
2023-12-20 18:18:50,656 - INFO - test	x: (5640, 12, 883, 1), y: (5640, 12, 883, 1)
2023-12-20 18:18:51,081 - INFO - StandardScaler mean: 309.5414726371829, std: 189.50746108430616
2023-12-20 18:18:51,081 - INFO - NoneScaler
2023-12-20 18:18:53,332 - INFO - receptive_field: 13
2023-12-20 18:18:53,443 - INFO - GWNET(
  (filter_convs): ModuleList(
    (0): Conv2d(32, 32, kernel_size=(1, 2), stride=(1, 1))
    (1): Conv2d(32, 32, kernel_size=(1, 2), stride=(1, 1), dilation=(2, 2))
    (2): Conv2d(32, 32, kernel_size=(1, 2), stride=(1, 1))
    (3): Conv2d(32, 32, kernel_size=(1, 2), stride=(1, 1), dilation=(2, 2))
    (4): Conv2d(32, 32, kernel_size=(1, 2), stride=(1, 1))
    (5): Conv2d(32, 32, kernel_size=(1, 2), stride=(1, 1), dilation=(2, 2))
    (6): Conv2d(32, 32, kernel_size=(1, 2), stride=(1, 1))
    (7): Conv2d(32, 32, kernel_size=(1, 2), stride=(1, 1), dilation=(2, 2))
  )
  (gate_convs): ModuleList(
    (0): Conv2d(32, 32, kernel_size=(1, 2), stride=(1, 1))
    (1): Conv2d(32, 32, kernel_size=(1, 2), stride=(1, 1), dilation=(2, 2))
    (2): Conv2d(32, 32, kernel_size=(1, 2), stride=(1, 1))
    (3): Conv2d(32, 32, kernel_size=(1, 2), stride=(1, 1), dilation=(2, 2))
    (4): Conv2d(32, 32, kernel_size=(1, 2), stride=(1, 1))
    (5): Conv2d(32, 32, kernel_size=(1, 2), stride=(1, 1), dilation=(2, 2))
    (6): Conv2d(32, 32, kernel_size=(1, 2), stride=(1, 1))
    (7): Conv2d(32, 32, kernel_size=(1, 2), stride=(1, 1), dilation=(2, 2))
  )
  (residual_convs): ModuleList(
    (0-7): 8 x Conv1d(32, 32, kernel_size=(1, 1), stride=(1,))
  )
  (skip_convs): ModuleList(
    (0-7): 8 x Conv2d(32, 256, kernel_size=(1, 1), stride=(1, 1))
  )
  (bn): ModuleList(
    (0-7): 8 x BatchNorm2d(32, eps=1e-05, momentum=0.1, affine=True, track_running_stats=True)
  )
  (gconv): ModuleList(
    (0-7): 8 x GCN(
      (nconv): NConv()
      (mlp): Linear(
        (mlp): Conv2d(96, 32, kernel_size=(1, 1), stride=(1, 1))
      )
    )
  )
  (start_conv): Conv2d(1, 32, kernel_size=(1, 1), stride=(1, 1))
  (end_conv_1): Conv2d(256, 512, kernel_size=(1, 1), stride=(1, 1))
  (end_conv_2): Conv2d(512, 12, kernel_size=(1, 1), stride=(1, 1))
)
2023-12-20 18:18:53,444 - INFO - nodevec1	torch.Size([883, 10])	cuda:0	True
2023-12-20 18:18:53,444 - INFO - nodevec2	torch.Size([10, 883])	cuda:0	True
2023-12-20 18:18:53,444 - INFO - filter_convs.0.weight	torch.Size([32, 32, 1, 2])	cuda:0	True
2023-12-20 18:18:53,444 - INFO - filter_convs.0.bias	torch.Size([32])	cuda:0	True
2023-12-20 18:18:53,444 - INFO - filter_convs.1.weight	torch.Size([32, 32, 1, 2])	cuda:0	True
…
